lstm_model.pt (torch, 209799 bytes, 9 tensors)

lstm.weight_ih_l0 f4 [256, 6]
-0.3305356 -0.4256134 -0.11407402 -0.1315823 -0.3424586 0.24376713 -0.29510552 -0.49906868
-0.042146895 0.14130671 -0.16704322 -0.08935228 0.08377009 0.08757353 -0.30183938 -0.2162166
0.012674621 0.14545745 -0.50596607 -0.5235906 0.054690506 0.03939322 -0.2459542 -0.27528948
-0.16707078 -0.34939697 0.025602479 0.06828228 0.2673467 -0.28146318 -0.007676997 -0.16046657
-0.17138918 -0.12068118 0.057066172 0.27194622 0.13200206 0.098455496 -0.38337544 -0.14575775
0.30604118 0.3215068 -0.12010458 0.04815713 0.0111171985 0.0657831 0.0982224 0.16055605
-0.11752705 -0.025898473 -0.19233985 0.006505854 0.109755784 0.2367315 -0.17142947 -0.42690274
0.06728919 -0.08836467 0.19131388 0.24139698 -0.20693476 -0.45368254 -0.026976665 -0.1267616
-0.11709881 0.09074849 -0.10843544 -0.23297994 0.014027625 -0.01724178 0.19141467 0.009126309
-0.18599552 -0.07483764 0.0066997595 -0.0502107 -0.11385069 0.11597746 0.13170783 0.06555421
-0.119318575 0.02708278 0.03263944 0.3106711 0.22033802 0.121089876 -0.34762058 0.03557977
0.24291801 -0.06731201 -0.07429313 -0.056965034 0.0222732 0.0073128096 0.16756162 0.12923601
0.022530127 -0.20853297 -0.23550756 0.03899642 0.22833626 0.16143566 -0.019264316 0.1031555
-0.09657994 0.113349564 0.13277557 0.05418171 -0.12975575 -0.22932342 -0.016053919 0.03370506
0.14626966 -0.07388008 -0.17986883 -0.33335495 -0.07237708 -0.096346565 -0.021490473 -0.07700191
0.06349364 -0.07594014 -0.090758756 -0.35847923 0.010638621 0.19324043 0.018537002 -0.059783716
-0.25387374 0.042704944 0.27514213 0.12777638 -0.25710034 -0.451621 -0.017587319 -0.037014015
0.0830241 -0.0480052 0.19404335 -0.08013881 -0.57059264 -0.114883736 0.24976245 -0.095987074
0.056162648 -0.13592993 -0.2201731 -0.13789408 -0.015413532 0.26831505 0.04059886 -0.04845668
-0.14453302 0.08799038 -0.033735365 0.2831262 -0.23084722 -0.24894056 -0.13799697 -0.072537415
0.04519112 -0.18557583 -0.014595476 -0.18222724 -0.0051501836 0.080906846 0.13143295 0.069544114
-0.25945154 -0.33376515 -0.24568695 -0.1234888 -0.13935862 0.13797608 -0.26357982 -0.37437588
0.019263178 0.072420314 -0.24140826 0.023178807 0.61282086 0.8037749 -0.1264422 -0.07160544
0.11394335 -0.13461497 -0.31421813 -0.5681776 -0.09455595 0.15675908 -0.24866448 0.13957414
-0.13609916 -0.19289267 -0.281923 -0.119943656 0.037253503 0.1923714 -0.1050545 -0.16973874
-0.13464114 -0.18271728 0.13859752 0.22905989 0.1837517 0.033054296 -0.16882053 -0.109806396
0.19670601 0.054402404 -0.11571124 -0.057836775 -0.20489019 0.08768255 0.16922408 0.11677842
0.101104766 0.04512673 -0.21138388 0.11110946 0.29975802 -0.0024217155 -0.1007917 -0.033690494
-0.008602655 0.093768895 -0.13810192 0.007854579 0.8494994 0.93032414 -0.1693599 0.14967719
0.17115714 0.045076158 -0.088652045 -0.22611783 -0.11130248 -0.03198891 -0.0895336 0.13146155
0.059763517 -0.18301816 -0.029461535 0.099938504 0.23945795 0.07687296 0.5078903 0.6015748
0.03534523 -0.0073508276 -0.022729402 -0.045192696 -0.2277161 -0.25533113 0.03605287 -0.2159237
00000000: f63b a9be 00ea d9be a49f e9bd 83bd 06be
00000010: bc56 afbe 179e 793e 1218 97be ee85 ffbe
00000020: 39a2 2cbd b5b2 103e 610d 2bbe 54fe b6bd
00000030: a78f ab3d c059 b33d b18a 9abe e267 5dbe
00000040: 37a9 4f3c ccf2 143e fe86 01bf 090a 06bf
00000050: 2703 603d c95a 213d 6bdb 7bbe bef2 8cbe
00000060: 9a14 2bbe 29e4 b2be 4abc d13c 94d7 8b3d
00000070: abe1 883e f11b 90be 528f fbbb 5951 24be
00000080: a580 2fbe b227 f7bd 38be 693d 893c 8b3e
00000090: 8c2b 073e 09a3 c93d c949 c4be 8541 15be
000000a0: 6eb1 9c3e 8a9c a43e 64f9 f5bd 6940 453d
000000b0: e924 363c 4ab9 863d d328 c93d ce68 243e
000000c0: 06b2 f0bd 0929 d4bc bdf4 44be 0f2f d53b
000000d0: a4c7 e03d be69 723e 358b 2fbe ff92 dabe
000000e0: eace 893d 89f8 b4bd c9e7 433e c530 773e
000000f0: b5e6 53be 1449 e8be 2bfe dcbc cbcd 01be
00000100: 80d1 efbd 58da b93d 6613 debd 4b92 6ebe
00000110: 20d4 653c a23e 8dbc 3502 443e 8486 153c
00000120: 9c75 3ebe 7a44 99bd a889 db3b bca9 4dbd
00000130: 8d2a e9bd 9785 ed3d 6bde 063e 4941 863d
00000140: 4c5d f4bd b5dc dd3c efb0 053d 4810 9f3e
00000150: 4aa0 613e f8fd f73d 53fb b1be 18bc 113d
00000160: 80bf 783e e1da 89bd ff26 98bd 2b54 69bd
00000170: 4976 b63c 4ba0 ef3b 4695 2b3e 7256 043e
00000180: 1a91 b83c ab89 55be e528 71be b6ba 1f3d
00000190: fbd0 693e 644f 253e 33d0 9dbc 3143 d33d
000001a0: b4cb c5bd d123 e83d 52f6 073e a4ed 5d3d
000001b0: b1de 04be c2d3 6abe 8283 83bc 510e 0a3d
000001c0: b7c7 153e 704e 97bd 892f 38be 80ad aabe
000001d0: 6f3a 94bd 5951 c5bd ca0c b0bc 2db3 9dbd
000001e0: f408 823d 8186 9bbd badf b9bd 978a b7be
000001f0: 9c4d 2e3c d2e0 453e e9da 973c c5df 74bd
00000200: bdfb 81be 61eb 2e3d 6edf 8c3e d0d7 023e
00000210: a8a2 83be de3a e7be 4813 90bc 029c 17bd
00000220: 8a08 aa3d 1aa1 44bd 4db3 463e d11f a4bd
00000230: 5c12 12bf 2a48 ebbd bac1 7f3e df94 c4bd
00000240: ce0a 663d 3731 0bbe 0f75 61be 1b34 0dbe
00000250: 0a89 7cbc 9760 893e fd4a 263d 837a 46bd
00000260: 7700 14be 4d34 b43d 182e 0abd ebf5 903e
00000270: 3763 6cbe 46ea 7ebe 144f 0dbe 7f8e 94bd
00000280: 531a 393d 9707 3ebe dd21 6fbc c799 3abe
00000290: dfc2 a8bb 7db2 a53d 5c96 063e 256d 8e3d
000002a0: d5d6 84be 44e3 aabe 5c95 7bbe b2e7 fcbd
000002b0: 07b4 0ebe 9a49 0d3e eff3 86be 32ae bfbe
000002c0: d0cd 9d3c 1a51 943d ba33 77be 7be1 bd3c
000002d0: d4e1 1c3f 31c4 4d3f 107a 01be dfa5 92bd
000002e0: 225b e93d 82d8 09be 33e1 a0be 1674 11bf
000002f0: 8da6 c1bd 7485 203e e7a1 7ebe 86ec 0e3e
00000300: 945d 0bbe a885 45be 3658 90be 05a5 f5bd
00000310: 2197 183d 02fd 443e d026 d7bd fecf 2dbe
00000320: 5edf 09be 3d1a 3bbe 82ec 0d3e ad8e 6a3e
00000330: 6829 3c3e f163 073d 4adf 2cbe 2de2 e0bd
00000340: 4d6d 493e 0ed5 5e3d 04fa ecbd 41e6 6cbd
00000350: bcce 51be e992 b33d 1449 2d3e 8629 ef3d
00000360: 0410 cf3d ced6 383d 0475 58be 5b8d e33d
00000370: e279 993e a5b5 1ebb e16b cebd 0bff 09bd
00000380: 26f2 0cbc e809 c03d 976a 0dbe 7eb0 003c
00000390: cb78 593f b929 6e3f ae6c 2dbe fa44 193e
000003a0: d143 2f3e c7a1 383d 348f b5bd 6f8b 67be
000003b0: 8ef2 e3bd ce06 03bd 645d b7bd db9d 063e
000003c0: 97ca 743d 1d69 3bbe 5159 f1bc 8fac cc3d
000003d0: 7734 753e 926f 9d3d 1905 023f ce00 1a3f
000003e0: 29c6 103d 36df f0bb 0333 babc fa1b 39bd
000003f0: 692e 69be c3ba 82be 2dac 133d 1a1b 5dbe

lstm.weight_hh_l0 f4 [256, 64]
-0.08648944 -0.115938365 -0.0020664483 -0.0862374 0.06299806 0.004223749 0.10426636 -0.02445136
-0.08237812 -0.09733018 -0.080682755 0.06247954 0.11626698 -0.017321065 0.12479445 0.018747091
0.035712883 -0.08555327 -0.05977261 -0.013986334 0.12408082 0.081216425 -0.083979905 -0.09764695
-0.09468654 -0.09782274 0.070335776 0.024187312 0.04213582 0.076527506 -0.05383879 -0.012090594
-0.05931543 0.0818762 -0.10817365 -0.046849787 -0.0982966 -0.04960841 -0.06274328 0.12281814
-0.011971757 0.022567391 0.11486113 0.033631638 0.06755823 -0.12362592 0.10791057 0.11233187
0.10862085 0.101098225 0.067271024 -0.042037785 -0.09147513 -0.110288486 0.041886166 0.112939075
0.012037918 -0.10160786 -0.033694625 -0.07575166 0.06974587 0.0070022047 -0.10685408 -0.053636894
0.044943377 0.116689235 -0.005602747 -0.098161906 -0.038105622 -0.0019971877 0.049767703 -0.05825396
0.089380026 0.10199253 0.099375844 0.111203566 -0.018816829 -0.040512413 -0.08408411 -0.08726701
-0.095712945 0.033221737 0.08104515 -0.036759168 0.07418139 0.11186436 0.094431326 0.04736218
-0.11542949 -0.033739552 0.025307804 0.07021138 0.04508826 0.1132303 -0.12467353 -0.033124417
0.02166155 0.026737511 -0.0426507 -0.04471597 -0.09413482 0.12045531 -0.01577802 -0.055394128
-0.10033031 -0.07238652 0.05364567 -0.015994027 -0.01809667 -0.10919894 -0.031667724 0.09230976
-0.05942391 -0.08615847 0.08754605 -0.028130606 0.04401365 0.029069528 -0.041693315 -0.029209226
-0.06852615 0.12290767 -0.08638626 -0.0720406 0.07324667 -0.036192134 -0.107395306 0.012114003
0.09397797 0.032404438 0.0008982569 0.03941275 -0.119408935 0.11117907 0.013042316 -0.07513875
0.12314913 0.08982071 0.052651346 -0.052646026 -0.0672154 -0.010842666 0.025778279 0.10086048
-0.07581751 0.124963984 0.013955548 -0.10046446 0.020378053 0.064488396 -0.10161267 0.063572705
0.0114264935 0.09415479 -0.001222223 -0.079418615 -0.12242538 -0.0011700243 0.026222095 0.124009594
0.01378271 0.09315689 -0.008015946 -0.118756935 -0.08428368 0.08942096 0.056125075 0.10771619
0.1188193 -0.05385907 -0.12287448 0.03806871 0.07323137 0.075130254 0.025999844 0.012427628
0.08494899 0.06349708 -0.077041596 0.08234514 0.116070345 -0.024185315 0.07225767 -0.04263687
-0.055891648 -0.048273712 -0.03857605 0.0116708875 -0.05300519 0.01817967 0.12253493 0.10040593
0.004566416 -0.115534514 -0.058096156 -0.014948219 0.058517277 -0.010222375 -0.0028583705 0.08459793
-0.050826475 -0.011809528 -0.024663135 0.08142099 0.013308525 -0.03867522 0.0491132 0.09860839
0.07301514 -0.045959607 -0.091634855 0.106748134 -0.018508732 0.08656633 0.09216365 0.10905847
0.03212619 -0.0912157 -0.049346104 -0.0970535 -0.08273168 -0.12218104 0.07153635 0.021204099
0.040358722 0.047815993 0.11922753 0.09383997 -0.08095686 -0.019103289 -0.115099326 0.012548193
-0.0791073 -0.06575069 -0.062946424 -0.058120906 0.045737624 -0.07058963 -0.09736422 0.0568202
-0.06699611 0.12250635 0.11633028 0.028108463 -0.010104284 -0.12118991 -0.09200506 -0.057676703
0.077595904 0.08701514 -0.10105766 0.09339155 0.017125502 0.08165008 -0.0062628537 0.0028196573
00000000: 6021 b1bd 1871 edbd 406d 07bb 3c9d b0bd
00000010: 2005 813d 6067 8a3b 9a89 d53d 384e c8bc
00000020: dcb5 a8bd 0c55 c7bd 003d a5bd 8cea 7f3d
00000030: 621d ee3d e8e4 8dbc 3c94 ff3d 8093 993c
00000040: ac47 123d 8e36 afbd 20d4 74bd f026 65bc
00000050: 161e fe3d cc54 a63d a8fd abbd 20fb c7bd
00000060: 04eb c1bd 4a57 c8bd 340c 903d 7824 c63c
00000070: 9c96 2c3d 74ba 9c3d 1086 5cbd a017 46bc
00000080: bcf4 72bd b6ae a73d 268a ddbd 90e5 3fbd
00000090: ba4f c9bd 3032 4bbd 8c7f 80bd 1488 fb3d
000000a0: 3025 44bc 40df b83c 503c eb3d 54c1 093d
000000b0: f85b 8a3d 962f fdbd 3800 dd3d 400e e63d
000000c0: 9c74 de3d 960c cf3d 64c5 893d d02f 2cbd
000000d0: 5057 bbbd eede e1bd d490 2b3d 9a4c e73d
000000e0: b03a 453c c817 d0bd 6003 0abd b023 9bbd
000000f0: ecd6 8e3d c072 e53b 50d6 dabd 5cb2 5bbd
00000100: 8c16 383d c4fa ee3d 4097 b7bb 1c09 c9bd
00000110: a414 1cbd 40e3 02bb 38d9 4b3d b49b 6ebd
00000120: e00c b73d 76e1 d03d 9085 cb3d b2be e33d
00000130: c025 9abc 58f0 25bd 4a34 acbd 0cb9 b2bd
00000140: 2605 c4bd 8413 083d 00fb a53d c890 16bd
00000150: 6aec 973d 2419 e53d 3665 c13d d8fe 413d
00000160: 4c66 ecbd 7c32 0abd 5052 cf3c fcca 8f3d
00000170: 78ae 383d 4ae5 e73d d654 ffbd 78ad 07bd
00000180: 9073 b13c a008 db3c 80b2 2ebd 1828 37bd
00000190: c2c9 c0bd 46b1 f63d e840 81bc f4e4 62bd
000001a0: fa79 cdbd 623f 94bd 90bb 5b3d e805 83bc
000001b0: 783f 94bc b2a3 dfbd 04b6 01bd e60c bd3d
000001c0: 7c66 73bd da73 b0bd 584b b33d 2872 e6bc
000001d0: a847 343d 3823 ee3c 9cc6 2abd 3048 efbc
000001e0: 7057 8cbd 04b7 fb3d 48eb b0bd 068a 93bd
000001f0: 5a02 963d 343e 14bd 12f2 dbbd d079 463c
00000200: 8677 c03d 84ba 043d 0079 6b3a 446f 213d
00000210: ac8c f4bd dab1 e33d 70af 553c 58e2 99bd
00000220: 9c35 fc3d ecf3 b73d f0a8 573d 5ca3 57bd
00000230: 3aa8 89bd 70a5 31bc f82c d33c f08f ce3d
00000240: 3646 9bbd 1eed ff3d d0a5 643c 50c0 cdbd
00000250: e0ef a63c 7e12 843d 4e1a d0bd 6832 823d
00000260: 3036 3b3c 3ad4 c03d 0033 a0ba 3aa6 a2bd
00000270: 28ba fabd 805b 99ba b8cf d63c bef8 fd3d
00000280: e0d0 613c 0ac9 be3d 5055 03bc d636 f3bd
00000290: ec9c acbd 5622 b73d 68e3 653d 4e9a dc3d
000002a0: 8857 f33d 549b 5cbd 9ea5 fbbd f0ed 1b3d
000002b0: 54fa 953d e4dd 993d a0fd d43c 409d 4b3c
000002c0: bcf9 ad3d c20a 823d fcc7 9dbd 92a4 a83d
000002d0: 4ab6 ed3d 4820 c6bc d4fb 933d 00a4 2ebd
000002e0: a4ee 64bd a8ba 45bd ec01 1ebd 4037 3f3c
000002f0: f81b 59bd 88ed 943c 98f3 fa3d a0a1 cd3d
00000300: e0a1 953b 5c9d ecbd 3cf6 6dbd 60e9 74bc
00000310: d0af 6f3d c07b 27bc 8053 3bbb ae41 ad3d
00000320: 6c2f 50bd c07c 41bc 580a cabc 0cc0 a63d
00000330: 000c 5a3c e869 1ebd ec2a 493d 32f3 c93d
00000340: f688 953d 2440 3cbd 0eab bbbd c49e da3d
00000350: a09f 97bc b049 b13d 4cc0 bc3d 0c5a df3d
00000360: c096 033d 4ccf babd 241f 4abd fcc3 c6bd
00000370: 3a6f a9bd 0e3a fabd a681 923d 38b4 ad3c
00000380: 304f 253d b4da 433d 902d f43d 2c2f c03d
00000390: b6cc a5bd 807e 9cbc 32b9 ebbd f096 4d3c
000003a0: 0203 a2bd 4ca8 86bd 0eea 80bd 3010 6ebd
000003b0: 6057 3b3d 4c91 90bd e466 c7bd 4cbc 683d
000003c0: 4235 89bd 9ce4 fa3d 923e ee3d b843 e63c
000003d0: 708c 25bc 6a32 f8bd 266d bcbd 683e 6cbd
000003e0: 9aea 9e3d fe34 b23d 52f7 cebd 1244 bf3d
000003f0: c84a 8c3c 2838 a73d a038 cdbb 00ca 383b

lstm.bias_ih_l0 f4 [256]
-0.03196265 0.2772693 0.27368894 0.058495283 0.23958488 0.17852427 0.14190368 0.20163149
0.08469746 -0.10336333 0.0694708 0.032852728 0.23982409 0.010434783 0.25371778 0.10350619
0.16592064 0.123763666 0.087447844 0.1706324 0.13093197 0.015563525 0.23282582 0.03185087
0.19167836 0.032026336 0.055385057 0.045158453 0.05491063 0.13721976 -0.021127136 -0.025739467
0.110507004 0.20010528 0.11356246 0.16000767 0.08214585 0.17324436 -0.11853352 0.22415395
0.12049329 0.2803473 0.17569599 0.18917575 0.30558187 -0.0064677857 -0.09664097 -0.003125497
0.092619956 0.23042493 0.067682646 0.27936703 0.18225974 0.2433881 0.039564196 0.2952129
0.1494794 0.064084545 0.10518484 0.1635969 0.21648417 0.1239822 0.2370425 0.086898
0.08773787 -0.11663155 -0.11672346 -0.102169275 -0.008826613 -0.029314041 -0.09844008 0.081946746
0.12000641 -0.025734663 0.07273388 -0.043585792 0.054414675 0.05584137 -0.085103124 0.070825964
0.021730036 0.087339744 0.11274895 -0.036135614 -0.05875607 -0.05676654 0.09182596 -0.042365134
-0.033161655 0.04286596 0.12180014 -0.12288581 0.0047646016 0.08332598 0.08325563 0.06840716
0.045503736 -0.0017972887 -0.012385577 -0.09784086 -0.013527393 -0.05415848 0.0641039 -0.10168588
-0.080550775 0.026965916 -0.10761613 0.05672656 -0.015326664 0.08866587 -0.0011148155 0.014634863
-0.02116251 0.0660055 -0.04045047 0.044846043 -0.05325985 -0.027063355 -0.033690557 0.063454166
0.015003219 -0.05895053 0.048015833 0.02882661 -0.0068668723 -0.082275584 0.01949276 -0.08709265
-0.050374996 0.12906592 0.07321528 -0.016878115 0.15188363 0.03583351 -0.085719645 0.03320638
0.08192149 0.07940521 0.060760073 0.15519957 0.08306756 0.059644476 -0.13346745 0.12874652
-0.00368144 0.00996949 0.054596007 -0.018041436 0.030693369 -0.040256884 -0.10927487 -0.07271036
-0.04792491 0.05673083 0.084158085 0.1352805 -0.047127604 0.049067307 0.0129316505 -0.12070505
-0.08847565 -0.00603827 -0.12069054 -0.08386133 -0.020940414 0.058305237 -0.047901995 -0.043596312
0.049254213 -0.15105371 -0.023800142 -0.07650239 0.0684412 0.15403304 -0.042551633 -0.069598585
0.008079647 -0.112309694 -0.1007163 -0.0032585927 -0.10217032 -0.18720947 -0.054121193 0.008859294
-0.15354677 0.13351057 -0.09304052 -0.13587628 -0.114943445 0.060298737 -0.0046724575 -0.138875
-0.04387584 0.08229812 0.08743709 0.062359992 0.07830143 -0.0005324923 0.13624646 0.2018255
0.11951924 -0.02546035 0.1518053 0.23922318 0.09153053 0.12581436 0.07370638 0.21456158
0.055995498 0.012402691 0.153533 0.15195183 0.20863819 0.09544882 0.12607703 0.06599776
0.22216505 0.19494686 0.25307387 0.18514384 0.15781263 -0.10069165 0.087519474 -0.03922655
0.23746748 -0.015809264 0.14753798 0.23310041 0.18074384 0.2841652 -0.1968464 0.14005217
-0.0142792035 0.22515318 0.09009571 0.27664793 0.23245566 -0.021943405 0.05675096 -0.12227945
0.14610423 0.1110573 0.13219549 0.23493746 0.20389321 0.22968158 0.01649341 0.15735067
0.097715095 -0.08996455 0.086845696 0.19889192 0.077602044 0.2023448 0.35188174 0.12358455
00000000: 45eb 02bd 3ef6 8d3e f520 8c3e c098 6f3d
00000010: bd55 753e 11cf 363e 334f 113e 7c78 4e3e
00000020: dd75 ad3d 27b0 d3bd b546 8e3d 9590 063d
00000030: 7294 753e a7f6 2a3c 4ce7 813e 0efb d33d
00000040: 1ae7 293e ce77 fd3d db17 b33d 43ba 2e3e
00000050: 0813 063e 28fe 7e3c e469 6e3e 0f76 023d
00000060: 5547 443e 0c2e 033d 71db 623d 12f8 383d
00000070: f8e9 603d 5683 0c3e d112 adbc 93db d2bc
00000080: 7f51 e23d 66e8 4c3e 6f93 e83d 0dd9 233e
00000090: 153c a83d f866 313e b4c1 f2bd 9d88 653e
000000a0: 30c5 f63d ae89 8f3e a6e9 333e 4ab7 413e
000000b0: 3a75 9c3e b8ef d3bb b3eb c5bd 23d5 4cbb
000000c0: 88af bd3d 83f4 6b3e 339d 8a3d 3209 8f3e
000000d0: 4ca2 3a3e bb3a 793e 110e 223d 2526 973e
000000e0: 2111 193e c23e 833d 266b d73d f285 273e
000000f0: 07ae 5d3e 61ea fd3d 45bb 723e 94f7 b13d
00000100: eaaf b33d 86dc eebd b60c efbd 203e d1bd
00000110: 809d 10bc 0024 f0bc f49a c9bd b2d3 a73d
00000120: ecc5 f53d 80d1 d2bc 80f5 943d 0487 32bd
00000130: ece1 5e3d ecb9 643d 8c4a aebd 340d 913d
00000140: 3003 b23c 2edf b23d ece8 e63d f002 14bd
00000150: 34aa 70bd 0884 68bd 400f bc3d 1087 2dbd
00000160: 84d4 07bd 3894 2f3d 5a72 f93d 8eab fbbd
00000170: 6020 9c3b d0a6 aa3d ee81 aa3d 0e19 8c3d
00000180: 2062 3a3d 0093 ebba e0ec 4abc ca60 c8bd
00000190: 00a2 5dbc 48d5 5dbd e848 833d b040 d0bd
000001a0: cef7 a4bd a0e7 dc3c d865 dcbd 1c5a 683d
000001b0: b01c 7bbc 7496 b53d 001f 92ba 10c7 6f3c
000001c0: 005d adbc e42d 873d 64af 25bd 7cb0 373d
000001d0: 0027 5abd f8b3 ddbc 1cff 09bd 42f4 813d
000001e0: 10d0 753c 1c76 71bd 40ac 443d c825 ec3c
000001f0: 8003 e1bb 1a80 a8bd 48af 9f3c a25d b2bd
00000200: 0356 4ebd db29 043e e5f1 953d f943 8abc
00000210: 6287 1b3e 29c6 123d c88d afbd 6a03 083d
00000220: 74c6 a73d 339f a23d 8edf 783d a3ec 1e3e
00000230: 531f aa3d c44d 743d b1ab 08be 21d6 033e
00000240: 5044 71bb 1257 233c 10a0 5f3d a2cb 93bc
00000250: a970 fb3c 67e4 24bd 81cb dfbd 2be9 94bd
00000260: e94c 44bd 965e 683d 135b ac3d f986 0a3e
00000270: e008 41bd cdfa 483d 46df 533c 3634 f7bd
00000280: b932 b5bd aedc c5bb 9a2c f7bd 7dbf abbd
00000290: 3b8b abbc 79d1 6e3d e234 44bd 0c92 32bd
000002a0: c9be 493d d3ad 1abe 84f8 c2bc 49ad 9cbd
000002b0: e62a 8c3d d6ba 1d3e 9f4a 2ebd b489 8ebd
000002c0: 7f60 043c a002 e6bd 5944 cebd 1d8e 55bb
000002d0: ac3e d1bd d7b3 3fbe 2fae 5dbd 9226 113c
000002e0: 5d3b 1dbe ffb6 083e 078c bebd 2723 0bbe
000002f0: 7867 ebbd cffb 763d 6a1b 99bb 3f35 0ebe
00000300: 27b7 33bd eb8b a83d 3812 b33d 316d 7f3d
00000310: 805c a03d f496 0bba 3184 0b3e 58ab 4e3e
00000320: 81c6 f43d 3992 d0bc d972 1b3e ecf6 743e
00000330: 5c74 bb3d 7bd5 003e 5ff3 963d 08b6 5b3e
00000340: 895b 653d a834 4b3c c137 1d3e 4399 1b3e
00000350: 40a5 553e ac7a c33d 561a 013e d529 873d
00000360: 3c7f 633e 26a0 473e e692 813e 5996 3d3e
00000370: a299 213e 6c37 cebd 693d b33d 05ac 20bd
00000380: ad2a 733e 6e82 81bc 3214 173e e0b1 6e3e
00000390: ea14 393e 1a7e 913e 1a92 49be d669 0f3e
000003a0: 52f3 69bc 8e8e 663e 1984 b83d cca4 8d3e
000003b0: db08 6e3e a8c2 b3bc b273 683d a66d fabd
000003c0: 599c 153e 0272 e33d 415e 073e 7293 703e
000003d0: 62c9 503e a631 6b3e 301d 873c 8920 213e
000003e0: da1e c83d 563f b8bd 28dc b13d 53aa 4b3e
000003f0: d2ed 9e3d 7a33 4f3e d829 b43e e619 fd3d

lstm.bias_hh_l0 f4 [256]
0.085125946 0.16505699 0.17658214 0.23803769 0.091794826 0.1685055 0.10079063 0.05699749
0.0358721 -0.076992735 0.099975385 0.16114374 0.06670844 0.13250014 0.14330857 0.030820614
0.076573715 0.2191311 0.24563712 0.09719615 0.10783498 0.03503746 0.09685309 0.05814241
0.006758736 0.06590544 0.21305865 0.22589833 0.008431404 -0.06106449 0.13636486 -0.11983044
0.15735625 0.16028643 0.12706338 0.08332573 0.24774443 0.20271373 -0.11434814 -0.004219832
-0.001515738 0.08070841 0.18264785 0.19796422 0.21754737 0.10180991 0.08023744 0.027721362
0.12312652 0.22925733 0.03201709 0.28028262 0.13408956 0.15673533 0.10967751 0.13696736
0.18290862 -0.08392645 0.02893148 0.19636357 0.08413719 0.19978876 0.14555286 0.14124492
-0.018796772 -0.027915716 0.07976779 0.033480823 -0.037241995 0.040423766 -0.11200118 -0.118346944
-0.081743985 0.04647897 0.0969058 0.08167489 -0.10035628 -0.10716678 0.07319161 0.06309773
-0.10949062 -0.040382385 -0.058581054 0.025391325 0.11770886 -0.044108346 0.003993511 -0.018990755
-0.033668205 -0.017305419 -0.023474693 0.10145472 0.06551157 0.089296475 0.07055205 0.048982844
0.019215912 -0.026997223 0.07770321 -0.032325715 -0.08479269 -0.09185569 0.11115277 0.016051143
0.037910044 -0.113621205 0.04195282 -0.0209423 -0.120391086 -0.049477607 0.07413331 -0.0089200735
-0.064483285 -0.054412812 0.026330769 0.018033639 -0.12026189 0.09114972 -0.032687783 -0.020203173
0.073395506 -0.08408351 0.08555353 -0.039473757 0.10303736 0.008114234 -0.076704234 0.03066592
0.11626469 -0.014887693 -0.09285409 -0.12724498 0.014805195 -0.14426918 0.05951451 -0.08906729
-0.039231773 0.045349907 0.14266337 0.02555146 -0.017417822 -0.038229465 -0.041013442 -0.053083397
0.074889 -0.048618495 -0.0538634 -0.025123801 0.019761639 0.04293773 -0.0016336624 0.0068276213
-0.041306287 0.051844962 -0.021954978 0.029017402 -0.10435687 0.02037396 0.12303763 0.049469206
0.13620605 -0.09951227 0.06740547 -0.06094453 -0.068070926 0.062323716 0.089444354 0.022146655
-0.16137089 -0.042097528 -0.017088128 0.009031427 0.076087475 0.06965498 0.0927039 0.0280647
-0.059960544 0.05348284 0.049376823 0.039894156 0.04433612 -0.011804025 -0.12561701 0.008943426
-0.13323379 -0.034290925 0.016523765 -0.05949653 0.07328388 -0.04657759 -0.048112366 0.024423892
-0.032140814 0.11532312 0.14130497 0.18544881 0.08207323 0.09477974 0.19102572 0.20744836
0.100273915 -0.044743814 0.15313946 0.21027583 0.22824022 0.25441846 0.15047638 0.044604532
0.041050013 0.22568488 0.10501297 -0.0025092652 0.24471779 0.1492083 0.21065298 0.19143455
0.23116976 0.19366544 0.17604384 0.22330765 -0.066163756 0.05229408 0.13938972 0.021435877
0.04414553 -0.008650246 0.10823365 0.30106342 0.13167019 0.13614833 -0.09757769 0.17900741
0.20549911 0.08127652 0.05624352 0.119054094 0.2891461 0.0708821 -0.03724937 -0.16726735
0.09766523 0.12204971 0.012024733 0.24570361 0.07737298 0.30401474 0.1676984 0.15307043
0.119566135 -0.013698791 0.13855483 0.19742016 0.18497832 0.07352588 0.28417403 0.22422029
00000000: 8356 ae3d b304 293e f3d1 343e 27c0 733e
00000010: edfe bb3d b58c 2c3e 516b ce3d 3376 693d
00000020: a0ee 123d 5eae 9dbd e5bf cc3d dd02 253e
00000030: 6f9e 883d 1eae 073e 7bbf 123e 837b fc3c
00000040: aed2 9c3d e763 603e 4c88 7b3e c60e c73d
00000050: 96d8 dc3d 7183 0f3d ea5a c63d bc26 6e3d
00000060: 6378 dd3b 6ef9 863d 0c2c 5a3e e451 673e
00000070: df23 0a3c c21e 7abd 3ba3 0b3e a969 f5bd
00000080: ff21 213e 2022 243e e71c 023e aea6 aa3d
00000090: b7b0 7d3e 3094 4f3e 5c2f eabd 8446 8abb
000000a0: baab c6ba 734a a53d 0a08 3b3e 22b7 4a3e
000000b0: bdc4 5e3e b781 d03d 8753 a43d e917 e33c
000000c0: c229 fc3d 6fc2 6a3e 5a24 033d 3481 8f3e
000000d0: c64e 093e 3a7f 203e 9a9e e03d 2c41 0c3e
000000e0: 664c 3b3e a1e1 abbd b601 ed3c 8813 493e
000000f0: 1e50 ac3d 6d95 4c3e cf0b 153e 82a2 103e
00000100: b0fb 99bc 80af e4bc 4c5d a33d 3023 093d
00000110: 108b 18bd 6493 253d e060 e5bd e25f f2bd
00000120: 6469 a7bd bc60 3e3d 8c76 c63d 2a45 a73d
00000130: 9887 cdbd 427a dbbd 7ce5 953d 6239 813d
00000140: 9e3c e0bd 0068 25bd b0f2 6fbd 7801 d03c
00000150: 5811 f13d f4aa 34bd 00dc 823b 8092 9bbc
00000160: ace7 09bd 18c4 8dbc 004e c0bc 7ec7 cf3d
00000170: ee2a 863d 12e1 b63d 987d 903d 3ca2 483d
00000180: b06a 9d3c 4829 ddbc dc22 9f3d f867 04bd
00000190: caa7 adbd d61e bcbd 10a4 e33d b07d 833c
000001a0: 9047 1b3d 3cb2 e8bd b8d6 2b3d 308f abbc
000001b0: 9a8f f6bd 08a9 4abd 34d3 973d 8025 12bc
000001c0: d00f 84bd f8df 5ebd a0b3 d73c 48bb 933c
000001d0: de4b f6bd b4ac ba3d a0e3 05bd 2081 a5bc
000001e0: 6250 963d fa33 acbd b036 af3d 3caf 21bd
000001f0: 4005 d33d 90f1 043c 1c17 9dbd 1837 fb3c
00000200: 2f1c ee3d 83eb 73bc 492a bebd 824c 02be
00000210: 7d91 723c 4dbb 13be 7dc5 733d e968 b6bd
00000220: 7fb1 20bd d3c0 393d 5916 123e 4c51 d13c
00000230: d2af 8ebc 8096 1cbd b6fd 27bd fa6d 59bd
00000240: 675f 993d 3024 47bd de9f 5cbd 6ed0 cdbc
00000250: 29e3 a13c 79df 2f3d 9d20 d6ba 3dba df3b
00000260: c830 29bd 625b 543d edda b3bc e7b5 ed3c
00000270: 0eb9 d5bd 4ae7 a63c 27fb fb3d 39a0 4a3d
00000280: 9979 0b3e 17cd cbbd e10b 8a3d f9a0 79bd
00000290: c568 8bbd 2747 7f3d 9a2e b73d e76c b53c
000002a0: 693e 25be 756e 2cbd 67fc 8bbc 8df8 133c
000002b0: c0d3 9b3d 45a7 8e3d 8bdb bd3d f1e7 e53c
000002c0: 3099 75bd d310 5b3d 5a3f 4a3d 0e68 233d
000002d0: cb99 353d ab65 41bc bfa1 00be 7387 123c
000002e0: 706e 08be a474 0cbd d95c 873c a2b2 73bd
000002f0: dc15 963d 25c8 3ebd 7911 45bd 9d14 c83c
00000300: 16a6 03bd 872e ec3d 40b2 103e 4be6 3d3e
00000310: 0216 a83d e11b c23d 3f9c 433e 586d 543e
00000320: 695c cd3d 4a45 37bd 97d0 1c3e 8c52 573e
00000330: ceb7 693e 2343 823e 7b16 1a3e 3eb3 363d
00000340: 0f24 283d f019 673e 0a11 d73d 7c72 24bb
00000350: 4d97 7a3e 10ca 183e 6ab5 573e 6b07 443e
00000360: c4b7 6c3e 3c50 463e d644 343e c3aa 643e
00000370: dd80 87bd 5132 563d 2ebc 0e3e 4b9a af3c
00000380: f1d1 343d c3b9 0dbc 9ba9 dd3d fc24 9a3e
00000390: 8dd4 063e 786a 0b3e d0d6 c7bd b84d 373e
000003a0: 5c6e 523e 4e74 a63d 9b5f 663d a2d2 f33d
000003b0: f50a 943e a22a 913d cc92 18bd 2248 2bbe
000003c0: b504 c83d 33f5 f93d 6303 453c ba99 7b3e
000003d0: ba75 9e3d d2a7 9b3e 21b9 2b3e 7fbe 1c3e
000003e0: 17df f43d e570 60bc 51e1 0d3e 8328 4a3e
000003f0: f56a 3d3e bd94 963d 427f 913e 019a 653e

lstm.weight_ih_l1 f4 [256, 64]
-0.09381667 -0.20787925 -0.076781675 0.1375114 -0.2623817 0.11357667 0.07761027 -0.0020811553
-0.13800979 -0.14477833 -0.14820434 -0.286247 -0.13546546 -0.09378769 0.061155654 -0.18192212
-0.21861596 0.01632004 0.16261406 0.17238589 -0.05711273 0.1690903 0.3155729 0.09538816
-0.2134318 -0.009368901 -0.11425211 -0.107161626 0.1645606 -0.09411087 -0.08933346 0.20143718
-0.16021338 0.20533134 -0.11756607 0.19335796 0.11150748 0.028954906 -0.11994891 -0.22406752
-0.0048298943 0.24620746 0.15917057 -0.09281881 -0.20617382 -0.14579917 -0.25471312 -0.05749881
-0.0023232051 0.081094116 -0.20383967 -0.0021889282 0.06530733 0.044919506 0.2276797 -0.2847078
0.21492843 -0.25192615 0.27025267 0.13649592 0.119851366 -0.0334129 -0.14525312 0.20993517
-0.27654538 -0.36158258 -0.23168127 0.29037425 -0.08980859 0.17023736 0.20957085 -0.12684429
-0.24406452 -0.06504535 -0.34231398 -0.23505965 -0.04411888 -0.19792293 -0.16382946 -0.1231754
-0.15815647 -0.06320641 0.07492069 0.17799345 -0.13729283 0.25120723 0.1323212 0.10893694
-0.1824021 -0.08802101 -0.16599381 -0.13760106 0.15929954 -0.086814225 0.05771961 0.20296694
-0.13512085 0.21153958 -0.13047045 0.38348356 0.05575065 -0.029233266 -0.13830656 -0.09686068
0.029439332 0.03532874 0.11771038 -0.018653449 -0.06282096 -0.14340049 -0.32199365 0.20620084
0.1397213 0.09234967 -0.032804254 0.13332751 0.13561626 0.11835409 0.19268401 -0.12563507
0.20327082 -0.2060235 0.15609403 0.018613806 0.12793842 0.04172582 0.042807546 0.2427408
-0.13255051 -0.05858914 0.007018027 0.08874818 0.036976773 -0.08469809 -0.16327298 -0.012791569
0.07453772 0.020806221 -0.12013986 0.002162028 0.078433834 -0.06435864 -0.018683048 -0.10961301
-0.055207644 -0.014892273 0.15663698 -0.13829917 0.110084504 -0.035477806 0.12794264 -0.05964555
0.026321147 -0.21490195 0.06881426 -0.18302809 0.13540249 0.06506198 -0.09719683 -0.025258692
0.070528254 -0.029572291 0.011800242 -0.009803537 -0.023064366 0.14027964 -0.12991443 0.07278315
-0.12680896 0.14311531 0.13826147 0.15207383 0.018348183 0.042368326 -0.04701845 -0.05223344
0.101307906 -0.02283571 -0.014679892 -0.013869103 0.08191511 0.107649915 0.12669414 -0.023728918
-0.06534322 -0.06008032 0.06515582 0.13037688 0.16032289 -0.10325445 -0.103008404 0.08433503
-0.30902725 -0.3860199 -0.0728621 0.5276061 -0.35461769 0.2392121 0.31535667 -0.1902045
-0.23421668 -0.32539606 -0.45103845 -0.1365113 -0.23561676 -0.13781688 -0.08907223 -0.24447384
-0.2435801 0.092741415 0.20349608 0.32201865 -0.16324851 0.2189013 0.41612005 0.24791496
-0.21037087 -0.26102734 -0.17710227 -0.18678215 0.38533083 -0.3990971 0.031770993 0.2735404
-0.27026087 0.20751242 -0.039203975 0.204178 0.23394974 0.10640989 -0.054181375 -0.17640737
0.15991634 0.14045967 0.2002124 -0.24336106 -0.050896224 -0.2460476 -0.31984773 -0.11183012
0.28113177 0.2479818 -0.17021461 0.15983991 0.22720109 0.10176978 0.50052214 -0.1865739
0.099291936 -0.28942844 0.37592366 0.095510885 0.26033586 0.2739291 -0.049903322 0.38120562
00000000: f422 c0bd 4cde 54be b63f 9dbd cacf 0c3e
00000010: e556 86be e39a e83d 22f2 9e3d fe63 08bb
00000020: 7052 0dbe c540 14be e1c2 17be f78e 92be
00000030: 75b7 0abe c313 c0bd 5a7e 7a3d cb49 3abe
00000040: dddc 5fbe 9bb1 853c 4d84 263e ed85 303e
00000050: 0aef 69bd 0226 2d3e c592 a13e de5a c33d
00000060: de8d 5abe 0580 19bc 03fd e9bd 8e77 dbbd
00000070: 9382 283e 33bd c0bd 76f4 b6bd 8c45 4e3e
00000080: fa0e 24be 6142 523e 7bc6 f0bd a1ff 453e
00000090: 095e e43d d732 ed3c c6a7 f5bd f571 65be
000000a0: 1744 9ebb cf1d 7c3e 9cfd 223e ca17 bebd
000000b0: 3b1f 53be 614c 15be c269 82be df83 6bbd
000000c0: ea40 18bb ac14 a63d 59bb 50be 1f74 0fbb
000000d0: d9bf 853d 84fd 373d de24 693e 39c5 91be
000000e0: 3316 5c3e 77fc 80be 8f5e 8a3e 96c5 0b3e
000000f0: a274 f53d f7db 08bd 3cbd 14be 3ff9 563e
00000100: 5b97 8dbe 5a21 b9be db3d 6dbe efab 943e
00000110: 91ed b7bd b452 2e3e be99 563e 78e3 01be
00000120: 0dec 79be 7f36 85bd c743 afbe 7ab3 70be
00000130: 00b6 34bd 4fac 4abe e9c2 27be 6243 fcbd
00000140: c5f3 21be 5d72 81bd 0570 993d ea43 363e
00000150: 7e96 0cbe 3c9e 803e 357f 073e 551a df3d
00000160: 9ec7 3abe 5c44 b4bd 48fa 29be 4be7 0cbe
00000170: 6b1f 233e a8cb b1bd 666b 6c3d 91d6 4f3e
00000180: 1f5d 0abe d59d 583e 0c9a 05be f557 c43e
00000190: cb5a 643d 9a7a efbc 3ca0 0dbe e45e c6bd
000001a0: c12a f13c deb4 103d 2412 f13d 1ecf 98bc
000001b0: 47a8 80bd 94d7 12be 5adc a4be 5026 533e
000001c0: 1a13 0f3e d321 bd3d c15d 06bd 0287 083e
000001d0: fdde 0a3e a163 f23d f54e 453e 7ba6 00be
000001e0: 3a26 503e d3f7 52be 1dd7 1f3e fb7b 983c
000001f0: 4a02 033e b2e8 2a3d f756 2f3d 0b91 783e
00000200: 52bb 07be 2bfb 6fbd 7af7 e53b 9bc1 b53d
00000210: f574 173d 3176 adbd 0831 27be bb93 51bc
00000220: 3ba7 983d cf71 aa3c e30b f6bd d0b0 0d3b
00000230: eba1 a03d 76ce 83bd 310d 99bc c97c e0bd
00000240: 6921 62bd b8fe 73bc 7265 203e 4c9e 0dbe
00000250: fc73 e13d 2d51 11bd 6503 033e e44e 74bd
00000260: 729f d73c 420f 5cbe 7eee 8c3d b76b 3bbe
00000270: f3a6 0a3e 373f 853d 220f c7bd 51eb cebc
00000280: 1e71 903d 9741 f2bc cd55 413c 049f 20bc
00000290: 7bf1 bcbc 77a5 0f3e 4a08 05be 550f 953d
000002a0: 35da 01be d28c 123e 6a94 0d3e 3eb9 1b3e
000002b0: ee4e 963c 698a 2d3d 6b96 40bd bbf2 55bd
000002c0: 857a cf3d f411 bbbc ee83 70bc 3c3b 63bc
000002d0: 1cc3 a73d 8f77 dc3d 1cbc 013e 2663 c2bc
000002e0: abd2 85bd c816 76bd 6a70 853d 8481 053e
000002f0: af2b 243e 1277 d3bd 12f6 d2bd d8b7 ac3d
00000300: d238 9ebe 66a4 c5be ba38 95bd 3211 073f
00000310: 7390 b5be 04f4 743e 6e76 a13e f8c4 42be
00000320: 7fd6 6fbe 509a a6be 83ee e6be 9ec9 0bbe
00000330: 8545 71be de1f 0dbe 806b b6bd 5a57 7abe
00000340: 106d 79be 36ef bd3d 4761 503e a1df a43e
00000350: 9e2a 27be aa27 603e b00d d53e 6bdd 7d3e
00000360: 766b 57be 60a5 85be 4c5a 35be d243 3fbe
00000370: 154a c53e 7556 ccbe 4d22 023d 7d0d 8c3e
00000380: a25f 8abe 237e 543e 5994 20bd 0a14 513e
00000390: 8590 6f3e 6eed d93d 4aed 5dbd 22a4 34be
000003a0: 1cc1 233e a9d4 0f3e 7b04 4d3e a433 79be
000003b0: 8f78 50bd e7f3 7bbe 15c3 a3be 3107 e5bd
000003c0: 81f0 8f3e f1ee 7d3e bd4c 2ebe 13ad 233e
000003d0: 67a7 683e ad6c d03d 3822 003f 3a0d 3fbe
000003e0: 9259 cb3d f72f 94be 1179 c03e 369b c33d
000003f0: be4a 853e 6f40 8c3e 6d67 4cbd 622d c33e

lstm.weight_hh_l1 f4 [256, 64]
0.05734031 -0.1009531 -0.0019079745 -0.004914716 -0.07413991 -0.06924851 -0.098564 -0.06325401
0.12373607 0.031024188 -0.035060152 -0.068217605 -0.016338065 -0.089154795 0.12229769 -0.06150569
-0.075993285 0.057023197 0.05102016 0.053305984 0.017746419 0.030071914 -0.01727052 -0.048534572
0.04652065 -0.12049845 -0.012464061 -0.04519607 -0.032952085 -0.109022915 -0.10495101 -0.047584563
0.071377754 0.051283345 -0.124736905 0.05938144 0.051074192 0.0081796795 0.086008355 0.059263498
-0.083153486 -0.01886256 -0.113870144 -0.05724986 0.054940775 0.12354648 -0.01734984 -0.09911901
-0.11229211 0.115436 0.043824226 0.08186263 0.02257295 0.05896111 -0.10441904 -0.0032546222
-0.040166214 0.08397122 -0.077796265 -0.07456784 -0.07502426 0.027452856 0.12472074 -0.104534626
-0.09741512 -0.105018914 -0.116259545 0.12413487 0.022467509 -0.10056074 0.06152609 -0.07525267
0.080377385 -0.06931083 0.10554749 -0.028132662 -0.067064136 0.025670692 0.087516695 0.07208267
0.025779888 -0.035368532 0.07952762 -0.020884559 0.04030636 -0.024751112 0.0065303296 0.09238276
-0.036480084 -0.034034684 0.12384738 -0.11862235 0.018648595 0.10645948 0.06540413 0.020969108
0.07819788 -0.0740294 -0.059299737 -0.010371983 0.04460597 0.05606687 0.0060382932 0.020854503
-0.03412375 -0.076808855 0.037626177 -0.020669758 -0.026624486 0.07774265 -0.06663285 0.0844201
-0.003865078 0.09078641 -0.050838023 0.06709774 0.06741814 0.12452376 0.11400311 0.08465038
-0.008263797 0.053562388 0.020870969 0.0414702 -0.08337025 0.06380291 -0.07006131 0.065661296
0.007682577 0.014478564 -0.07688016 -0.016489238 0.11947818 -0.11543372 -0.11548418 0.08466995
-0.018053114 0.066042945 0.05603221 -0.08546944 -0.07299343 0.0945102 0.097396776 0.06329204
-0.07917313 0.0504743 -0.0030125976 -0.033493236 -0.048632085 0.10848889 0.05129206 -0.08643784
0.0765439 0.09820664 0.04724276 -0.04327795 0.08137496 -0.03345591 -0.069476694 0.074202985
0.122351184 0.09166765 0.06422584 0.0490503 0.0461867 -0.12333433 -0.009900749 0.048655048
0.012723431 -0.054245546 -0.048172116 -0.12365103 -0.08219309 0.0974544 -0.048819944 -0.010936499
-2.9057264e-05 -0.025186732 0.11856058 0.10701656 -0.08414763 -0.12258722 -0.05383998 0.11678399
0.1131946 0.08864835 0.057299778 0.09657489 -0.043165073 0.019423187 0.098553285 0.0022744834
-0.10785505 0.10948041 -0.04987231 -0.089378715 0.045691743 0.0040559173 -0.050011277 -0.0256591
-0.052568242 -0.0001912415 0.05004421 -0.06751387 0.12359241 -0.028959125 -0.020853013 -0.08077891
0.037525058 0.10786244 -0.06628938 -0.01619722 0.044641227 0.08135466 -0.013512477 0.0558137
0.07353094 -0.11922945 -0.048182756 0.03155677 0.023821026 -0.018137664 -0.030047297 -0.060276717
0.02953653 0.06526026 0.02321361 -0.07483116 0.025361106 0.0014847219 -0.027011037 -0.071362525
-0.12372345 0.019771576 0.076282665 -0.017561018 0.0831584 -0.02777125 0.05520603 0.009013116
0.0296835 -0.017502949 -0.07994555 -0.103351414 -0.082351506 -0.022509903 -0.09799729 -0.08797255
0.057583123 0.06964064 0.104024425 0.077096075 0.07866478 0.044845104 -0.040265486 0.0030257702
00000000: acdd 6a3d 80c0 cebd 0015 faba a00b a1bb
00000010: aad6 97bd 2ad2 8dbd ecdb c9bd 528b 81bd
00000020: 5669 fd3d 7026 fe3c 3c9b 0fbd acb5 8bbd
00000030: 68d7 85bc ca96 b6bd 3677 fa3d 64ed 7bbd
00000040: 5ea2 9bbd 2891 693d 84fa 503d 6057 5a3d
00000050: f060 913c 6059 f63c e87a 8dbc 30cc 46bd
00000060: 708c 3e3d e4c7 f6bd 1036 4cbc 841f 39bd
00000070: c4f8 06bd 6847 dfbd 8ef0 d6bd 08e8 42bd
00000080: 802e 923d 7c0e 523d 1076 ffbd f439 733d
00000090: 2c33 513d 1004 063c 2625 b03d 48be 723d
000000a0: 604c aabd a885 9abc c034 e9bd d47e 6abd
000000b0: 9409 613d f005 fd3d 4021 8ebc e8fe cabd
000000c0: 68f9 e5bd b669 ec3d 0881 333d 98a7 a73d
000000d0: e8ea b83c 3481 713d a6d9 d5bd 804b 55bb
000000e0: 5485 24bd 1af9 ab3d a653 9fbd 06b7 98bd
000000f0: 52a6 99bd d0e4 e03c 966d ff3d 4016 d6bd
00000100: 9481 c7bd 2814 d7bd 7c19 eebd 6c3a fe3d
00000110: c80d b83c caf2 cdbd c802 7c3d 121e 9abd
00000120: e69c a43d d6f2 8dbd 4829 d83d 7876 e6bc
00000130: ec58 89bd 584b d23c f43b b33d 14a0 933d
00000140: 5830 d33c 98de 10bd 60df a23d 1816 abbc
00000150: 4818 253d d8c2 cabc 60fc d53b 2c33 bd3d
00000160: 246c 15bd f467 0bbd b2a3 fd3d 46f0 f2bd
00000170: f0c4 983c 6e07 da3d 9af2 853d 68c7 ab3c
00000180: 3626 a03d ba9c 97bd 48e4 72bd 40ef 29bc
00000190: c0b4 363d 60a6 653d e0dc c53b 10d7 aa3c
000001a0: 58c5 0bbd f64d 9dbd e81d 1a3d a053 a9bc
000001b0: 981b dabc 8a37 9f3d ce76 88bd 72e4 ac3d
000001c0: 404d 7dbb 3aee b93d 883b 50bd 8a6a 893d
000001d0: 8612 8a3d 5006 ff3d 767a e93d 2e5d ad3d
000001e0: e064 07bc 3c64 5b3d 98f9 aa3c a8dc 293d
000001f0: 06be aabd 1aab 823d 4e7c 8fbd 6e79 863d
00000200: 20be fb3b 8037 6d3c 5873 9dbd 7014 87bc
00000210: fab0 f43d 8468 ecbd f882 ecbd 7067 ad3d
00000220: 20e4 93bc 8641 873d 0882 653d 9a0a afbd
00000230: 947d 95bd 908e c13d f677 c73d 429f 813d
00000240: 8625 a2bd 24be 4e3d 006f 45bb 3430 09bd
00000250: 7032 47bd 6c2f de3d a017 523d 5206 b1bd
00000260: 0cc3 9c3d 9020 c93d a081 413d 3844 31bd
00000270: eaa7 a63d 1009 09bd cc49 8ebd bcf7 973d
00000280: 4293 fa3d 40bc bb3d d688 833d f8e8 483d
00000290: 442e 3d3d b696 fcbd c036 22bc 844a 473d
000002a0: f075 503c 9430 5ebd 2050 45bd c03c fdbd
000002b0: da54 a8bd 2c96 c73d 6cf7 47bd 002f 33bc
000002c0: 00c0 f3b7 6854 cebc e4cf f23d 802b db3d
000002d0: 9855 acbd 020f fbbd 5087 5cbd 722c ef3d
000002e0: 92d2 e73d 448d b53d 2cb3 6a3d 0ec9 c53d
000002f0: dccd 30bd 601d 9f3c 4ed6 c93d 800f 153b
00000300: 1ce3 dcbd 4437 e03d e846 4cbd 300c b7bd
00000310: 4427 3b3d 80e7 843b a0d8 4cbd 0833 d2bc
00000320: cc51 57bd 0088 48b9 28fb 4c3d b644 8abd
00000330: 041e fd3d b03b edbc f0d3 aabc 6a6f a5bd
00000340: e0b3 193d fce6 dc3d bac2 87bd 08b0 84bc
00000350: b8d9 363d 469d a63d 7063 5dbc e89c 643d
00000360: 6497 963d 922e f4bd 485b 45bd ac41 013d
00000370: 5024 c33c 7095 94bc c025 f6bc b8e4 76bd
00000380: 98f6 f13c 2ca7 853d 782a be3c 1441 99bd
00000390: 18c2 cf3c 009b c23a 4046 ddbc 8426 92bd
000003a0: b862 fdbd 00f8 a13c 163a 9c3d 20dc 8fbc
000003b0: f44e aa3d 8880 e3bc b81f 623d c0ab 133c
000003c0: d02a f33c 5862 8fbc 7eba a3bd e8a9 d3bd
000003d0: e8a7 a8bd b066 b8bc ceb2 c8bd f42a b4bd
000003e0: 48dc 6b3d c09f 8e3d c20a d53d 8ce4 9d3d
000003f0: 001b a13d 80af 373d 6ced 24bd 004c 463b

lstm.bias_ih_l1 f4 [256]
0.11355957 0.14348407 -0.05791418 0.015822766 -0.020363757 0.10447952 0.04323548 0.039660025
0.02213596 0.08702503 0.19005007 0.118068814 0.08661597 0.0831406 0.088103704 0.12024904
0.1572358 -0.009018569 0.2923292 0.015200809 0.08503622 0.10497359 -0.025527954 -0.015080157
-0.05923842 0.11175433 0.08052002 0.10445946 0.18301813 -0.00966571 0.1573625 0.10176108
-0.05250098 0.1627845 0.07939375 0.09524749 0.028617261 0.14879751 -0.025843605 0.034748785
0.22834718 0.021923946 0.13767238 0.17047419 0.00856938 0.12658225 0.20374116 0.13970728
0.12009925 0.2285808 0.004391393 0.09198724 -0.037336726 0.14688368 0.08224391 -0.023010498
-0.096313 0.1859375 0.08218892 -0.045326117 0.18169177 0.033644293 0.075767 0.020105004
0.041531965 0.056168452 -0.04844615 -0.0041724294 -0.00973171 0.124917254 0.11043987 -0.095814094
-0.09493865 0.027840465 0.05652538 -0.07559475 0.11936572 0.043974265 -0.08415364 -0.0005174875
0.06107405 -0.044926584 0.04662721 0.051147252 -0.012001142 0.04902515 0.11446904 -0.023545623
-0.09328367 -0.012997851 -0.09282024 0.07069668 -0.05763337 0.07430473 -0.062062502 -0.07476072
-0.00495407 -0.08392103 0.04531841 0.074556366 -0.025455654 0.022416204 0.046504185 -0.119610205
-0.025727585 0.058915555 0.038006604 0.094884425 0.04472527 0.07364176 -0.052685693 0.10721059
0.0025205463 0.00826253 -0.031218678 -0.003941104 -0.12199812 -0.06317626 -0.11402534 -0.033138976
-0.049163178 0.03870593 0.016951516 0.071619555 -0.11761868 0.059815273 -0.077426836 0.10699366
0.032991156 0.050571658 -0.003871222 0.065551504 0.04922698 -0.099913344 -0.018468536 -0.037656844
0.17931657 -0.036502518 0.07770314 0.021395596 0.1939401 -0.171988 -0.16818643 -0.027894499
0.10602402 0.013476554 0.13256592 -0.10136893 -0.1052647 -0.035578854 0.033513207 -0.031101277
-0.08245279 -0.071491525 -0.002716325 0.06466046 0.043072 -0.11817673 0.08965586 0.065335125
-0.15190022 -0.13612941 0.09869409 -0.078465365 0.05311846 0.073822305 -0.035365958 -0.01702426
-0.23542082 -0.04529954 0.09469479 -0.11955515 0.014148581 0.012884957 0.20747554 -0.077755146
0.030290004 0.032145377 -0.0020570827 0.008301065 0.011147705 -0.06701351 0.117257 0.0014860317
-0.02394713 -0.033347867 0.091443315 -0.025946012 0.04928403 0.050826572 -0.05902714 -0.056993105
0.087221384 0.045368094 0.061073095 0.10720024 -0.039159413 0.07643983 -0.01350006 0.036509275
0.13768664 0.06041996 0.1427308 0.099955276 0.17576635 0.13049558 0.026172932 -0.025380136
0.06690125 0.011731474 -0.02218769 -0.026519466 0.07358343 0.06926649 -0.03319215 0.04107747
0.006933175 0.14849448 0.18602824 0.0958953 0.21619458 0.116609834 0.13260087 -0.009319017
0.120113276 0.109914534 0.107201375 0.0880494 0.16956197 0.16561213 0.17865685 0.1015885
0.22770599 0.1607136 0.09016298 0.009215514 0.0029870805 0.031333387 0.06445532 -0.04361655
0.10648035 0.18899122 -0.031934515 -0.078137204 0.14545727 0.014761443 -0.038368005 -0.03848714
0.031367213 0.21063678 0.16866224 -0.08470212 0.10375778 -0.103295915 -0.084126055 0.12569481
00000000: eb91 e83d 7ded 123e 6b37 6dbd bf9e 813c
00000010: e5d1 a6bc 5cf9 d53d b017 313d 8d72 223d
00000020: 7956 b53c 2e3a b23d 7c9c 423e 10ce f13d
00000030: b763 b13d 9e45 aa3d b76f b43d 2145 f63d
00000040: 6c02 213e 9fc2 13bc 2cac 953e d00c 793c
00000050: 7827 ae3d 65fc d63d 0020 d1bc c312 77bc
00000060: fca3 72bd 74df e43d aee7 a43d d7ee d53d
00000070: 1b69 3b3e ed5c 1ebc a323 213e 1d68 d03d
00000080: 450b 57bd fbb0 263e 3199 a23d 1e11 c33d
00000090: bf6e ea3c 605e 183e f8b5 d3bc be54 0e3d
000000a0: d8d3 693e d999 b33c fdf9 0c3e c990 2e3e
000000b0: 9666 0c3c c79e 013e 86a1 503e 6d0f 0f3e
000000c0: 98f6 f53d 1611 6a3e ade5 8f3b ce63 bc3d
000000d0: 65ee 18bd ad68 163e 7f6f a83d 8380 bcbc
000000e0: c03f c5bd 6666 3e3e aa52 a83d e1a7 39bd
000000f0: 680d 3a3e 99ce 093d bb2b 9b3d 40b3 a43c
00000100: 6c1d 2a3d e410 663d 786f 46bd e0b8 88bb
00000110: c071 1fbc 9ed4 ff3d 4c2e e23d 2e3a c4bd
00000120: 326f c2bd b011 e43c 2887 673d 6cd1 9abd
00000130: 0476 f43d 5c1e 343d be58 acbd 00a8 07ba
00000140: c828 7a3d f004 38bd 2cfc 3e3d c87f 513d
00000150: 70a0 44bc 98ce 483d be6e ea3d c0e2 c0bc
00000160: 820b bfbd f0f4 54bc 8a18 bebd 6cc9 903d
00000170: f810 6cbd 142d 983d 4035 7ebd 261c 99bd
00000180: c055 a2bb cade abbd cc9f 393d 02b1 983d
00000190: 6088 d0bc 30a2 b73c 2c7b 3e3d 32f6 f4bd
000001a0: a8c2 d2bc 7051 713d d0ac 1b3d c452 c23d
000001b0: d831 373d 7ed1 963d f4cc 57bd 3a91 db3d
000001c0: c02f 253b 905f 073c 50be ffbc 6024 81bb
000001d0: 26da f9bd 8e62 81bd 1e86 e9bd bcbc 07bd
000001e0: 545f 49bd 1c8a 1e3d e8dd 8a3c 46ad 923d
000001f0: 10e2 f0bd dc00 753d f691 9ebd 7e1f db3d
00000200: bc21 073d 3a24 4f3d 54b4 7dbb de3f 863d
00000210: 3ba2 493d 5e9f ccbd 544b 97bc 103e 1abd
00000220: c39e 373e aa83 15bd d322 9f3d d145 af3c
00000230: 3c98 463e 9f1d 30be 1039 2cbe 0183 e4bc
00000240: 1f23 d93d c4cc 5c3c 5cbf 073e 839a cfbd
00000250: 0595 d7bd 22bb 11bd 2545 093d 1bc8 febc
00000260: 02dd a8bd 266a 92bd 5f04 32bb b46c 843d
00000270: 446c 303d a406 f2bd 7e9d b73d 6cce 853d
00000280: bb8b 1bbe 8265 0bbe 2120 ca3d 73b2 a0bd
00000290: be92 593d 2630 973d e5db 10bd 7676 8bbc
000002a0: 2812 71be 038c 39bd 58ef c13d 55d9 f4bd
000002b0: 73cf 673c 6d1b 533c 7874 543e 173e 9fbd
000002c0: be22 f83c dfaa 033d 1fd0 06bb 3101 083c
000002d0: dda4 363c 613e 89bd 7024 f03d f3c6 c23a
000002e0: c62c c4bc c697 08bd a246 bb3d bb8c d4bc
000002f0: 0dde 493d 862f 503d 71c6 71bd 9a71 69bd
00000300: 20a1 b23d e5d3 393d c827 7a3d cd8b db3d
00000310: 9f65 20bd 7c8c 9c3d 5b2f 5dbc c08a 153d
00000320: bafd 0c3e ec7a 773d 0628 123e 5ab5 cc3d
00000330: 18fc 333e a2a0 053e 9e68 d63c 01ea cfbc
00000340: 8603 893d 5e35 403c f5c2 b5bc 5a3f d9bc
00000350: e9b2 963d 97db 8d3d 7ef4 07bd d940 283d
00000360: b02f e33b f00e 183e 307e 3e3e c164 c43d
00000370: 1d62 5d3e 23d1 ee3d 86c8 073e caae 18bc
00000380: f3fd f53d df1a e13d 658c db3d 3e53 b43d
00000390: a7a1 2d3e 3a96 293e d2f1 363e a20d d03d
000003a0: c22b 693e 1b92 243e 5ea7 b83d abfc 163c
000003b0: e5c2 433b 7057 003d 2701 843d 44a7 32bd
000003c0: 5f12 da3d ea86 413e c4cd 02bd 6606 a0bd
000003d0: c0f2 143e fbd9 713c c527 1dbd b1a4 1dbd
000003e0: e87a 003d 2bb1 573e cbb5 2c3e 4e78 adbd
000003f0: f57e d43d cf8c d3bd 484a acbd 24b6 003e

lstm.bias_hh_l1 f4 [256]
0.16075835 0.036768235 0.03757843 0.081398055 0.094693296 0.06357488 0.12779324 0.038885605
0.055649575 0.07626267 -0.02358423 -0.00195562 0.11014969 0.06737681 0.03618022 -0.02438713
0.111130625 0.03692826 0.1571991 -0.058187634 0.063733205 -0.09592476 0.1221837 0.011730032
0.13626896 0.14130323 0.085712865 0.16684197 0.062485605 0.13366614 0.011560016 -0.037579924
0.024475258 0.11192378 0.23694852 0.050238237 0.08443579 0.010665567 0.15891002 0.14691523
0.37715104 0.06487847 -0.036050875 -0.0042858156 -0.021210855 -0.044429794 0.32962048 0.09829743
-0.09097989 0.14602587 -0.07919003 0.047881994 0.03031375 0.009358602 -0.036470458 -0.032097757
-0.045979634 0.016102163 0.10008764 0.089446224 -0.060700726 0.020669729 -0.06248617 0.05392948
-0.065274924 -0.07911232 -0.091994464 0.030583993 -0.102185965 0.061359048 -0.0034430325 -0.031129465
-0.08979273 -0.035140187 0.08630711 0.09246077 0.11518806 0.10473935 -0.0010874271 -0.04782486
0.0010794699 0.11118674 -0.1192085 0.10456252 -0.032793313 0.04151681 0.08190231 -0.073068485
0.0665234 -0.12285134 -0.080074 0.085629016 0.018468082 -0.10324389 0.02200897 0.027875423
0.014066324 0.089812726 -0.09009346 0.022138655 -0.029317245 -0.020108342 0.1048972 0.08148971
0.107481614 0.036834136 -0.038876086 0.102305725 -0.029061735 -0.065359056 -0.09965876 0.09952326
-0.090663195 0.011412352 0.081872016 -0.0055293143 -0.026456028 -0.082641914 -0.018413305 0.10125172
0.05541493 -0.056905836 0.09372197 0.0023987591 0.108389735 -0.12350835 -0.035608962 0.038996905
0.121644214 -0.116233885 0.060320932 0.05366846 -0.026220074 0.030808724 0.055893894 -0.006323308
0.0148196155 -0.16834664 -0.051399723 -0.09379329 0.048929315 -0.06934441 -0.007319696 0.059385113
-0.004635099 0.069008306 0.11847299 -0.049501248 0.0486268 -0.007560625 -0.09000554 0.016757686
0.12755297 0.025629334 -0.041739266 0.06202467 0.022024216 0.039084278 -0.07338476 -0.08864591
0.041957267 -0.03688415 0.09600403 0.11938008 0.041432917 -0.010796044 -0.034572784 -0.1542074
-0.22179598 -0.12906641 -0.060281295 -0.02883394 0.16647813 -0.00075944804 0.21405438 0.004108135
0.10868143 -0.0064960355 0.0015020471 0.00858068 0.008221459 -0.06694555 -0.11732937 -0.0010338925
0.028631194 0.11009831 -0.0911551 -0.0098346155 -0.067646 0.031514324 -0.03988759 -0.070993036
-0.025958542 0.016660858 0.15532133 0.010675046 0.0076445015 0.05896845 0.103229605 0.13868861
0.11137946 0.16999106 -0.01943713 -0.06777382 0.09924462 0.052947525 0.05125161 0.09852714
0.10560252 -0.016723562 0.12494974 -0.08443503 0.08790509 -0.13561536 0.069103025 0.056733955
0.025856148 0.025423853 0.07399126 -0.038251355 -0.0076422985 0.11538 0.14089242 0.07293347
0.159203 0.08389192 0.033406265 0.06751606 -0.021957532 0.020874003 0.168165 0.06665306
0.19157141 -0.03932581 -0.005299476 0.101454996 0.12070222 -0.0678287 0.15494645 -0.018976578
0.11915072 0.20278713 -0.082673416 -0.100999326 -0.063416176 0.084448285 -0.053226616 0.014043379
-0.012695091 0.02357376 -0.020686155 0.091882855 0.12525003 -0.08002014 0.08442956 0.18378957
00000000: d69d 243e 4a9a 163d d7eb 193d 06b4 a63d
00000010: 8fee c13d 8c33 823d 3bdc 023e 8346 1f3d
00000020: cff0 633d 9a2f 9c3d b733 c1bc dc29 00bb
00000030: 2996 e13d dafc 893d b631 143d 85c7 c7bc
00000040: 7498 e33d 1642 173d cdf8 203e 2856 6ebd
00000050: 8e86 823d 3374 c4bd 733b fa3d 522f 403c
00000060: 178a 0b3e cbb1 103e 3a8a af3d 9fd8 2a3e
00000070: e8f0 7f3d c7df 083e 3966 3d3c 68ed 19bd
00000080: 5680 c83c 4b38 e53d a2a2 723e 9cc6 4d3d
00000090: acec ac3d a1be 2e3c 4fb9 223e f270 163e
000000a0: f119 c13e 01df 843d 15aa 13bd 0770 8cbb
000000b0: 63c2 adbc 04fc 35bd 04c4 a83e 2a50 c93d
000000c0: aa53 babd ce87 153e 622e a2bd e91f 443d
000000d0: 8b54 f83c d254 193c 0c62 15bd f078 03bd
000000e0: 2455 3cbd afe8 833c c0fa cc3d 952f b73d
000000f0: 53a1 78bd 9053 a93c 80f1 7fbd 29e5 5c3d
00000100: dcae 85bd a405 a2bd 9867 bcbd 488b fa3c
00000110: e046 d1bd a053 7b3d 80a4 61bb 3803 ffbc
00000120: 40e5 b7bd 28ef 0fbd c8c1 b03d 125c bd3d
00000130: b8e7 eb3d 9681 d63d 0088 8eba 00e4 43bd
00000140: 007d 8d3a e0b5 e33d 9623 f4bd e024 d63d
00000150: 4852 06bd 880d 2a3d 66bc a73d eea4 95bd
00000160: 6c3d 883d 7c99 fbbd d6fd a3bd 445e af3d
00000170: 604a 973c 8871 d3bd 284c b43c 005b e43c
00000180: 7076 663c bcef b73d ec82 b8bd 205c b53c
00000190: b82a f0bc 40ba a4bc 58d4 d63d 14e4 a63d
000001a0: 521f dc3d 64df 163d 883c 1fbd aa85 d13d
000001b0: e012 eebc f8da 85bd e419 ccbd dad2 cb3d
000001c0: a0ad b9bd e0fa 3a3c 84ac a73d 402f b5bb
000001d0: 50ba d8bc 2a40 a9bd 80d7 96bc 105d cf3d
000001e0: c4fa 623d 1816 69bd 4ef1 bf3d 8034 1d3b
000001f0: 70fb dd3d f2f1 fcbd b4da 11bd 38bb 1f3d
00000200: 9a20 f93d 080c eebd 1513 773d 76d3 5b3d
00000210: 7bcb d6bc 9462 fc3c fff0 643d c133 cfbb
00000220: f9cd 723c 1063 2cbe 8488 52bd b216 c0bd
00000230: 1b6a 483d 7104 8ebd 0fda efbb ce3d 733d
00000240: 07e2 97bb 3a54 8d3d f8a1 f23d d2c1 4abd
00000250: e52c 473d 1fbf f7bb d354 b8bd 6a47 893c
00000260: 3f9d 023e 9cf4 d13c cbf6 2abd 950d 7e3d
00000270: 216c b43c d616 203d c04a 96bd fd8b b5bd
00000280: 62db 2b3d d613 17bd c39d c43d 8b7d f43d
00000290: 90b5 293d e4e1 30bc 319c 0dbd 8be8 1dbe
000002a0: 7c1e 63be fc29 04be 85e9 76bd 2835 ecbc
000002b0: 3e79 2a3e b215 47ba 1231 5b3e 899d 863b
000002c0: 5f94 de3d b2dc d4bb 56e0 c43a fb95 0c3c
000002d0: 4cb3 063c c01a 89bd 614a f0bd ad83 87ba
000002e0: f78b ea3c 397b e13d 86af babd 5e21 21bc
000002f0: fc89 8abd 2a15 013d 2b61 23bd cc64 91bd
00000300: 02a7 d4bc 5a7c 883c 8e0c 1f3e 63e6 2e3c
00000310: ba7e fa3b e788 713d 0b6a d33d 6304 0e3e
00000320: ea1a e43d 2312 2e3e 9e3a 9fbc 00cd 8abd
00000330: c340 cb3d 81df 583d 35ed 513d 99c8 c93d
00000340: 2246 d83d daff 88bc a6e5 ff3d 46ec acbd
00000350: 9507 b43d c1de 0abe e385 8d3d dd61 683d
00000360: 46d0 d33c af45 d03c bb88 973d 74ad 1cbd
00000370: 3f6c fabb 594c ec3d 1a46 103e 255e 953d
00000380: 1c06 233e 87cf ab3d 02d5 083d dc45 8a3d
00000390: 48e0 b3bc f5ff aa3c 7233 2c3e 6681 883d
000003a0: 4c2b 443e 1a14 21bd 3aa7 adbb a3c7 cf3d
000003b0: ba32 f73d c6e9 8abd 48aa 1e3e c574 9bbc
000003c0: 4b05 f43d 6ea7 4f3e ae50 a9bd bcd8 cebd
000003d0: 57e0 81bd 39f3 ac3d 2704 5abd 3316 663c
000003e0: 12ff 4fbc c21d c13c 0376 a9bc 142d bc3d
000003f0: 8b41 003e 99e1 a3bd 68e9 ac3d 5533 3c3e
